data.pth (torch, 15383 bytes, 6 tensors)

l1.weight f4 [8, 251]
-0.1518516 -0.62325186 0.05353248 -0.74202424 1.4789978 0.079098605 0.08732544 0.097108334
-0.60296947 0.13650534 0.37937826 0.03625673 -0.33472285 -0.21724185 -0.72463584 -0.6317899
1.3080873 0.34332484 -0.09865097 0.32703117 0.48796517 0.8936297 0.11065243 0.04228736
1.1627505 0.371737 0.16644844 0.005415991 0.46302617 0.0971844 0.1890486 0.056224316
-0.23923078 -0.19552562 0.17132376 -0.66089183 0.32589012 -0.16448092 -0.35310814 -0.29958963
-0.01507925 -0.03868296 -0.62295675 0.452208 -0.07100542 0.5259961 -0.6086384 -0.21414883
-0.31558636 -0.36787483 0.26019883 0.121846065 -0.8709561 0.16833524 0.14785284 0.015669119
0.049300972 0.2575286 0.1845457 0.7447369 0.34910226 0.42892987 0.061360214 0.8358408
-0.60629195 0.3274222 0.33427703 -0.3741752 0.6283634 0.44429255 -0.16472927 -0.1021972
0.6960736 0.37555373 0.03325603 0.26317564 0.0676941 0.5229345 -0.4796732 0.6238832
0.2452669 0.13287161 0.30955142 -0.22258396 -0.09690184 -0.23100336 -0.91701883 -0.33721843
0.8454915 -0.17718966 1.4456494 0.26783052 0.03599093 0.8736707 0.16595381 1.0485262
-0.25487742 0.9052837 0.04001409 0.035232864 -0.4245322 0.4263865 -0.59657496 0.3387431
-0.60113823 1.4094969 -0.79151434 1.0879673 -0.2730816 0.6763518 1.2785118 0.95717096
-0.62138927 0.9514388 0.9376472 -0.9507203 0.49695837 0.4734068 0.68356586 0.8684789
-0.039440848 0.24015453 0.34373307 -0.15716761 0.4736932 -0.20616819 0.164089 1.062779
0.27366048 0.112470224 -0.7245648 0.6047144 -0.33913252 1.1728908 -0.43466842 -0.757591
0.77292633 -0.08629093 0.84529364 0.4098928 0.40398955 0.0411481 -0.09767881 0.22195697
-0.99934155 -0.20502377 0.46790925 -0.49230433 -0.06343184 0.7410024 0.4561401 0.7877499
1.1451085 0.32934624 1.7918617 0.03382484 0.7889902 0.3897065 0.48809972 -0.17384924
0.0711365 -0.1373739 0.1403244 0.6191061 0.31340817 0.1960906 0.57855415 0.16557093
0.3365902 0.25475624 0.36355236 -0.7491076 0.4364888 0.023061289 0.20882563 -0.587764
-0.43490627 0.051012482 -1.0220813 -0.35941255 -0.43528894 0.44890362 0.21249698 0.41133454
0.31981346 -0.24377075 -0.15573101 1.0045546 0.82587355 -0.6242896 0.40412766 -0.01729878
0.6014651 0.09553478 -0.052148838 0.15360637 0.8728316 -0.36826727 0.18232988 1.2415088
0.19986741 0.17120118 0.58096206 -0.7701581 -0.2944048 -0.037976474 0.31415385 0.31619284
0.037529245 0.31705686 0.5820993 -0.5595426 0.21591967 -0.23367307 -0.068035744 0.9275034
-0.33625928 -0.13505895 -0.84208393 0.29415265 0.9033999 0.8204926 0.28506672 0.8459361
-0.15975215 0.38491887 0.40520254 -0.25599524 -0.20650102 0.27435333 0.31587985 -0.052484054
-0.50556475 -0.15614864 0.5035937 0.64838016 -0.0144403875 0.43639997 0.047770273 0.51179224
-0.40325215 0.79098314 0.9924873 0.42694506 0.3686557 0.13841462 -0.4510182 0.04049115
0.035543323 -0.3692683 0.5921171 0.90425205 1.1120479 -0.09965973 0.54203415 0.4197421
00000000: fc7e 1bbe 6f8d 1fbf e044 5b3d 4df5 3dbf
00000010: cd4f bd3f 73fe a13d aed7 b23d bce0 c63d
00000020: 355c 1abf 0ec8 0b3e de3d c23e f081 143d
00000030: cb60 abbe a674 5ebe bc81 39bf fcbc 21bf
00000040: 686f a73f 46c8 af3e 8509 cabd a170 a73e
00000050: 92d6 f93e ebc4 643f be9d e23d 8335 2d3d
00000060: 02d5 943f 5054 be3e 7671 2a3e a078 b13b
00000070: c411 ed3e 9d08 c73d f595 413e 784b 663d
00000080: eaf8 74be de37 48be 7f6f 2f3e 3530 29bf
00000090: 12db a63e b06d 28be 97ca b4be d063 99be
000000a0: f50e 77bc 0672 1ebd 187a 1fbf cf87 e73e
000000b0: 4a6b 91bd aea7 063f bacf 1bbf d549 5bbe
000000c0: 8994 a1be 175a bcbe c838 853e 6e8a f93d
000000d0: fbf6 5ebf 1360 2c3e bc66 173e 865c 803c
000000e0: d1ef 493d cada 833e 8cf9 3c3e 14a7 3e3f
000000f0: 88bd b23e b29c db3e d954 7b3d aaf9 553f
00000100: f335 1bbf e2a3 a73e 5c26 ab3e e493 bfbe
00000110: 6cdc 203f 507a e33e caae 28be c44c d1bd
00000120: e131 323f 9448 c03e 7a37 083d f5be 863e
00000130: 34a3 8a3d 09df 053f ba97 f5be cfb6 1f3f
00000140: 3f27 7b3e 7f0f 083e 867d 9e3e 0ded 63be
00000150: 7974 c6bd 258c 6cbe bfc1 6abf e5a7 acbe
00000160: 2272 583f 3571 35be 0a0b b93f 1521 893e
00000170: 3a6b 133d e2a8 5f3f ccef 293e 1b36 863f
00000180: 4b7f 82be acc0 673f d0e5 233d 5650 103d
00000190: 495c d9be 554f da3e 23b9 18bf bc6f ad3e
000001a0: 32e4 19bf 656a b43f afa0 4abf 8342 8b3f
000001b0: 5ad1 8bbe 6425 2d3f 46a6 a33f 2809 753f
000001c0: 5e13 1fbf 7e91 733f a609 703f 6862 73bf
000001d0: 5471 fe3e 6062 f23e 2cfe 2e3f a254 5e3f
000001e0: ba8c 21bd 12eb 753e c8fd af3e 8cf0 20be
000001f0: ea87 f23e c11d 53be f206 283e 2409 883f
00000200: 3a1d 8c3e ca56 e63d 147d 39bf 90ce 1a3f
00000210: c7a2 adbe 4921 963f dc8c debe 7cf1 41bf
00000220: 80de 453f 4db9 b0bd 2a65 583f 78dd d13e
00000230: b8d7 ce3e e98a 283d d40b c8bd b048 633e
00000240: d9d4 7fbf c0f1 51be cd91 ef3e 500f fcbe
00000250: 8de8 81bd 55b2 3d3f 328b e93e faa9 493f
00000260: ea92 923f 12a0 a83e b95b e53f ea8b 0a3d
00000270: 43fb 493f 9c87 c73e 35e8 f93e 8905 32be
00000280: 03b0 913d beab 0cbe 33b1 0f3e bd7d 1e3f
00000290: 0977 a03e f9cb 483e 201c 143f 6d8b 293e
000002a0: 8d55 ac3e 696f 823e 8923 ba3e 84c5 3fbf
000002b0: 767b df3e 07eb bc3c 63d6 553e b477 16bf
000002c0: 09ac debe 77f2 503d 8fd3 82bf ec04 b8be
000002d0: 31de debe b2d6 e53e cf98 593e 719a d23e
000002e0: 97be a33e 0a9f 79be f377 1fbe 3f95 803f
000002f0: 736c 533f 71d1 1fbf d2e9 ce3e 2cb6 8dbc
00000300: 9ef9 193f bda7 c33d 059a 55bd fd4a 1d3e
00000310: e471 5f3f 878d bcbe afb4 3a3e c3e9 9e3f
00000320: 0baa 4c3e 5d4f 2f3e eeb9 143f 1529 45bf
00000330: 3abc 96be 388d 1bbd c6d8 a03e 07e4 a13e
00000340: 44b8 193d 4755 a23e 7604 153f 2f3e 0fbf
00000350: 0c1a 5d3e fe47 6fbe 5356 8bbd dd70 6d3f
00000360: 2d2a acbe e54c 0abe d092 57bf 2d9b 963e
00000370: 3745 673f ce0b 523f 44f4 913e 458f 583f
00000380: 1196 23be 1614 c53e b576 cf3e cf11 83be
00000390: 0175 53be 0a78 8c3e 01bb a13e 85f9 56bd
000003a0: b16c 01bf 6ee5 1fbe 84eb 003f 3efc 253f
000003b0: 6097 6cbc d16f df3e c3aa 433d d104 033f
000003c0: 1177 cebe df7d 4a3f a613 7e3f 8b98 da3e
000003d0: 71c0 bc3e 90bc 0d3e dceb e6be 0cda 253d
000003e0: e095 113d bc10 bdbe fc94 173f 107d 673f
000003f0: 9657 8e3f 671a ccbd c0c2 0a3f 70e8 d63e

l1.bias f4 [8]
0.7962428 1.2215627 1.0744663 1.1924274 0.85438603 1.197483 0.97736204 1.7828755
00000000: 91d6 4b3f 2b5c 9c3f 1d88 893f 76a1 983f
00000010: 0bb9 5a3f 1f47 993f 6634 7a3f 4435 e43f

l2.weight f4 [8, 8]
2.2063148 2.2364166 3.1329327 -1.4759239 2.6454582 -0.55500036 2.0359674 -1.0466318
1.0088689 2.0516765 -1.1083902 2.0585566 -0.4360756 0.91337574 0.28221363 0.8283957
1.3637315 -0.6324418 2.0334983 1.2728938 -0.6290064 1.5574002 -0.7601131 2.6903994
1.63618 0.68709546 -0.307982 -0.8192546 -2.2619474 1.9275346 1.8958524 0.47555324
0.9951664 1.488826 -0.6295023 -1.3963461 2.543968 2.935335 -0.8007368 1.4615788
-1.2618762 0.83615965 1.3669943 1.6345485 0.00046806154 1.2309026 2.8631275 -0.48990428
-1.5423187 1.5950292 -0.85847807 2.0588763 0.13010457 -0.25507227 0.85979617 3.3457017
0.3409174 -1.9595244 1.2420778 1.4262714 1.6882503 3.079198 1.8459466 1.5480319
00000000: 4334 0d40 7321 0f40 f881 4840 13eb bcbf
00000010: 304f 2940 8114 0ebf 4a4d 0240 08f8 85bf
00000020: 9e22 813f ab4e 0340 bbdf 8dbf 64bf 0340
00000030: 4d45 dfbe fed2 693f 4e7e 903e be11 543f
00000040: c18e ae3f b5e7 21bf d624 0240 2fee a23f
00000050: 9006 21bf e458 c73f c696 42bf 812f 2c40
00000060: 596e d13f 7de5 2f3f d1af 9dbe abba 51bf
00000070: bfc3 10c0 74b9 f63f 4bab f23f b77b f33e
00000080: 3ac3 7e3f da91 be3f 1027 21bf 78bb b2bf
00000090: 5fd0 2240 87dc 3b40 16fd 4cbf 0415 bb3f
000000a0: 2985 a1bf 8f0e 563f abf9 ae3f e338 d13f
000000b0: 2866 f539 378e 9d3f 7b3d 3740 bcd4 fabe
000000c0: b36a c5bf eb29 cc3f 38c5 5bbf a1c4 0340
000000d0: 223a 053e d598 82be 9a1b 5c3f fa1f 5640
000000e0: ba8c ae3e b2d1 fabf 68fc 9e3f 1090 b63f
000000f0: 9618 d83f 9411 4540 fa47 ec3f e925 c63f

l2.bias f4 [8]
2.2770472 0.12160859 0.09228348 -0.44370505 0.9580123 -0.011339584 2.2725463 -1.308831
00000000: 24bb 1140 ed0d f93d 1fff bc3d 4f2d e3be
00000010: 4b40 753f aac9 39bc 6671 1140 c687 a7bf

l3.weight f4 [32, 8]
-0.18401183 -0.33531755 -0.68448 -2.575748 -3.46686 0.51719904 0.38736114 0.10187303
-0.5267633 -3.7074606 0.42573848 -2.4190893 -1.701977 0.22991778 0.1814742 0.63209105
0.37185854 -0.19628058 -2.715229 0.054342255 -2.299353 0.7977253 0.24211289 -1.9733489
0.33374232 -1.2642658 -3.5834153 -1.1721518 -1.4878252 0.35292703 0.2948733 0.44203922
1.0355216 -1.6927729 -2.4303489 -1.1257501 0.26647463 -0.10017926 -2.213379 -0.40400895
-0.73144317 0.6684105 -0.3747137 0.24585402 0.34624425 -1.9360662 0.20480806 -2.4816806
-2.1549196 0.4216075 -1.793842 0.59766984 0.14323418 0.06716095 0.023906462 -0.88769585
0.4668917 -2.4191525 -0.073825836 -1.7999129 0.36784947 -1.3936309 -2.7295294 0.4051783
0.29195866 -1.695586 0.24278077 -0.03654654 -1.7822192 -0.8041228 -2.0504339 0.1382664
-0.2309682 -1.1147523 -0.20618396 -3.2469804 -0.40998715 0.10072591 -2.0331779 0.7997043
-0.5384577 -2.6720064 -0.34756315 -0.22475573 0.26116192 -0.5142612 -1.5555695 0.3805696
0.040238697 -2.464279 -0.9052182 0.49188706 -3.0123522 0.5669018 -0.33791375 -0.024654185
-0.00646308 -0.5919928 0.22872771 -0.027546946 -0.63165754 -0.46399057 -0.33100307 -1.8684608
-1.4416444 -2.9173717 -0.27249426 -2.2871006 0.5423997 0.12544842 -0.22808866 0.61720556
-2.7812243 -0.012908315 0.075466014 -2.163133 -1.1009316 0.1551303 -0.4266994 0.7809129
0.5773941 -1.2598419 -1.8397635 0.9197376 -1.1475811 0.27390486 -1.6707404 -1.1327941
0.001474614 -0.08052775 -1.1208304 0.050348215 0.597308 -2.3076396 -1.1209742 -0.53284127
-0.626928 0.6228251 -1.2915261 -1.1229842 -0.69490665 0.68616134 0.5967462 -2.6593018
-3.4008095 -0.7434106 0.41525602 -3.6969073 0.88456124 -1.0153403 0.5076258 0.04491372
-0.21314271 -0.49343136 0.342331 -3.34616 0.03597195 -1.4822446 -0.12719394 -0.31172782
-0.60077703 -0.8919646 0.52232075 -0.25453523 0.024177903 -2.7515495 -2.3140295 0.4479517
1.1531986 -0.7316161 -2.0652342 -3.0733836 1.258346 -1.4071375 1.2921679 -2.7600515
-1.3349802 -0.34590864 0.19724958 0.5363402 -0.33499038 -1.425203 -0.777484 -0.2758952
-0.4343474 0.14949799 -4.133133 0.558526 -0.2809093 0.1445876 0.35413668 -1.013829
0.85498774 -0.5135738 0.005018271 -0.072564065 -0.33892903 -0.30329806 -1.2689403 -3.1478715
0.51018465 -3.411679 -1.5983222 -0.8969045 -0.81477594 0.15081066 -0.96332383 0.63193566
-1.5644685 -0.0076852874 -0.012340423 -0.9033131 -1.5325418 -0.7986761 0.8945037 -0.28451875
-0.24529646 -0.9340344 -1.5494324 -1.4810326 0.08366814 -0.1803292 -0.1442191 -0.14381123
-0.17180206 -1.2982452 -2.262723 0.3743838 -0.19557527 0.009053133 -0.9062484 -0.090122454
-2.3403485 0.021732073 -1.1628269 -0.83819485 0.7223663 -0.5888571 -0.45069474 0.38003504
-2.5903685 0.41976756 0.13567938 -2.3261833 0.49738175 -0.21944486 0.9838367 -2.695985
-1.4403166 -0.26787752 -1.5418068 -0.34089908 -1.594431 0.755784 0.1215584 0.07628456
00000000: 996d 3cbe beae abbe 153a 2fbf 0ed9 24c0
00000010: 09e1 5dc0 2867 043f 3354 c63e cfa2 d03d
00000020: f6d9 06bf 0947 6dc0 65fa d93e 5cd2 1ac0
00000030: 62da d9bf 916f 6b3e 5fd4 393e b8d0 213f
00000040: 3e64 be3e c7fd 48be 50c6 2dc0 fc95 5e3d
00000050: 9928 13c0 ba37 4c3f 71ec 773e b296 fcbf
00000060: 46e0 aa3e 76d3 a1bf ad56 65c0 1209 96bf
00000070: 0e71 bebf dab2 b43e a2f9 963e f752 e23e
00000080: f98b 843f c8ac d8bf d68a 1bc0 9418 90bf
00000090: 5d6f 883e c92a cdbd 00a8 0dc0 43da cebe
000000a0: dc3f 3bbf f31c 2b3f 79da bfbe 28c1 7b3e
000000b0: ed46 b13e 04d1 f7bf 34b9 513e dbd3 1ec0
000000c0: 34ea 09c0 f0dc d73e 9d9c e5bf e400 193f
000000d0: fbab 123e ae8b 893d 7cd7 c33c 0940 63bf
000000e0: 6e0c ef3e 65d3 1ac0 0032 97bd 8c63 e6bf
000000f0: c456 bc3e 7f62 b2bf 9cb0 2ec0 8873 cf3e
00000100: 9b7b 953e f608 d9bf 869b 783e d3b1 15bd
00000110: c21f e4bf feda 4dbf 4f3a 03c0 b595 0d3e
00000120: ee82 6cbe 34b0 8ebf e321 53be 87ce 4fc0
00000130: d6e9 d1be 6349 ce3d 961f 02c0 6cb9 4c3f
00000140: 5dd8 09bf 2702 2bc0 ccf3 b1be 5e26 66be
00000150: 04b7 853e 9fa6 03bf e71c c7bf 05da c23e
00000160: 55d1 243d bfb6 1dc0 61bc 67bf 9fd8 fb3e
00000170: 61ca 40c0 7a20 113f 0803 adbe 93f7 c9bc
00000180: 3fc8 d3bb d78c 17bf 9937 6a3e 22aa e1bc
00000190: 4fb4 21bf 2c90 edbe 3c79 a9be b929 efbf
000001a0: ce87 b8bf 38b6 3ac0 5e84 8bbe db5f 12c0
000001b0: b5da 0a3f 8d75 003e 1390 69be 2f01 1e3f
000001c0: 94ff 31c0 667d 53bc ed8d 9a3d c570 0ac0
000001d0: 54eb 8cbf 7ada 1e3e 5878 dabe e8e9 473f
000001e0: 1ad0 133f 8042 a1bf 5f7d ebbf ec73 6b3f
000001f0: f0e3 92bf 423d 8c3e d2da d5bf 66ff 90bf
00000200: d647 c13a bceb a4bd 5f77 8fbf ee39 4e3d
00000210: 2de9 183f 5eb0 13c0 157c 8fbf 4968 08bf
00000220: 5a7e 20bf 7771 1f3f ba50 a5bf f2bd 8fbf
00000230: 67e5 31bf 45a8 2f3f 5cc4 183f 0032 2ac0
00000240: dda6 59c0 2850 3ebf 709c d43e 219a 6cc0
00000250: 9b72 623f acf6 81bf c4f3 013f 73f7 373d
00000260: 1542 5abe 09a3 fcbe 0246 af3e 7c27 56c0
00000270: 5357 133d 31ba bdbf 213f 02be ca9a 9fbe
00000280: 86cc 19bf cb57 64bf d0b6 053f 7152 82be
00000290: bd10 c63c 6319 30c0 0f19 14c0 ed59 e53e
000002a0: 039c 933f 314b 3bbf cc2c 04c0 51b2 44c0
000002b0: 7b11 a13f 151d b4bf c265 a53f afa4 30c0
000002c0: a2e0 aabf f01a b1be cbfb 493e 974d 093f
000002d0: dc83 abbe 0d6d b6bf 3109 47bf 2342 8dbe
000002e0: c862 debe 0016 193e a042 84c0 8ffb 0e3f
000002f0: 58d3 8fbe c60e 143e 6751 b53e 26c5 81bf
00000300: 7ae0 5a3f 9379 03bf 4f70 a43b 789c 94bd
00000310: 1b88 adbe e249 9bbe a36c a2bf ba76 49c0
00000320: 769b 023f f358 5ac0 d295 ccbf 899b 65bf
00000330: 2895 50bf 1c6e 1a3e 649c 76bf 89c6 213f
00000340: 8140 c8bf ddd4 fbbb 7c2f 4abc 873f 67bf
00000350: 542a c4bf 0976 4cbf 32fe 643f 71ac 91be
00000360: ff2e 7bbe e11c 6fbf cd53 c6bf 7a92 bdbf
00000370: 345a ab3d 38a8 38be 2cae 13be 4043 13be
00000380: e1ec 2fbe e62c a6bf 74d0 10c0 3caf bf3e
00000390: e244 48be 9853 143c e5ff 67bf 1f92 b8bd
000003a0: 45c8 15c0 7607 b23c 83d7 94bf f093 56bf
000003b0: ffec 383f 57bf 16bf 76c1 e6be f493 c23e
000003c0: 99c8 25c0 c6eb d63e 89ef 0a3e 30e0 14c0
000003d0: d2a8 fe3e 27b6 60be b9dc 7b3f 058b 2cc0
000003e0: 4b5c b8bf 3e27 89be ed59 c5bf 538a aebe
000003f0: 5116 ccbf 0f7b 413f 9cf3 f83d 143b 9c3d

l3.bias f4 [32]
0.42381662 -0.11534895 0.12613377 -0.36146438 -0.09736844 -0.2841573 -0.6220904 0.1280135
-0.33021656 -0.0962939 -0.48947325 0.22361015 -0.35106727 -0.285141 0.14219669 -0.057449847
-0.09714072 -0.22210011 0.19662328 -0.067098014 -0.51843584 1.6223499 -0.23059116 -0.57501435
0.1842321 -0.10696301 -0.24959077 -1.0187641 -0.7759651 0.0058918907 0.63659215 -0.2580476
00000000: 7efe d83e 123c ecbd 3629 013e dc11 b9be
00000010: 1b69 c7bd 117d 91be 5141 1fbf f915 033e
00000020: 2512 a9be bc35 c5bd 3d9c fabe 0ffa 643e
00000030: 17bf b3be 00fe 91be 029c 113e 8850 6bbd
00000040: b7f1 c6bd 366e 63be 9d57 493e af6a 89bd
00000050: 36b8 04bf 29a9 cf3f 1720 6cbe 2434 13bf
00000060: 57a7 3c3e 6c0f dbbd b994 7fbe dd66 82bf
00000070: a6a5 46bf c310 c13b b4f7 223f d11e 84be
